chatbot-deployment/data.pth (torch, 5674 bytes, 6 tensors)

l1.weight f4 [8, 60]
-0.085305735 0.3201288 -0.41563255 0.43398267 -0.048413817 0.8327427 -0.28556573 -0.3199589
-0.2810447 -0.14572257 -0.34208068 0.5729098 0.52045226 0.024211856 0.5856927 0.35114637
0.57113624 0.35757482 0.5872483 0.024871029 0.60410005 0.056474257 0.5009509 0.5478124
0.7634427 0.34690908 0.41169173 0.09208245 0.35776955 -0.009707562 0.41497377 0.3576507
0.6197264 -0.07140994 -0.23865944 0.32187578 0.47795033 -0.63024616 -0.04245009 -0.31346667
-0.29742947 -0.2696962 0.435581 -0.043414526 0.4802264 0.27981946 0.44283345 0.46036962
0.048864234 0.02104648 0.1633186 -0.24494255 -0.2066349 0.0039692516 0.5201508 -0.29458344
-0.018066444 -0.24340853 -0.182132 -0.05615996 -0.25694203 -0.0058354437 0.42075232 0.27451918
0.5130452 0.7267904 0.423866 0.5177684 0.20740141 0.37740767 0.42253643 0.27743244
-0.27128723 0.0426507 -0.44681808 -0.040129416 -0.35567978 0.2482523 0.68151426 -0.24738832
0.2864678 -0.047215123 0.30510947 0.33541444 0.04023727 0.2998273 0.2274116 -0.22831804
-0.077743806 -0.0077041937 0.018677372 0.39760104 -0.42806104 0.50832933 0.46887252 0.10498127
-0.3679451 0.67782897 -0.15547252 0.21606597 0.19884397 0.41080073 0.25712243 -0.4230907
-0.27335688 0.0142708365 0.22856542 0.08371831 -0.5805682 -0.13681374 0.22304247 0.70047796
0.5925428 -0.5500717 -0.23004523 0.4504912 -0.35649937 0.6762283 0.43692377 0.53823036
-0.23504227 0.62069476 -0.37924477 -0.19142017 -0.07668888 0.601995 -0.14782506 -0.2997476
-0.06708338 -0.034236334 -0.4012455 -0.27067024 0.53082335 0.48335788 0.5613591 0.41530496
0.5399666 -0.14142375 0.76473576 0.20725591 -0.41213724 -0.09237645 -0.41218647 -0.412088
-0.2457667 0.18935646 -0.30999756 0.38330713 0.7315296 0.24320132 0.672049 0.536282
0.48871925 -0.30297503 -0.4366597 0.49875194 0.31024337 0.39475438 0.39927262 -0.18728581
-0.013170539 -0.23042355 0.59451646 0.19774948 0.34808904 0.40475598 -0.24740121 0.4657849
-0.48796493 0.0109603 0.20779903 0.3901581 0.09289854 0.49148878 0.4713004 -0.13197997
0.28442562 0.3832673 -0.10005317 0.08530829 -0.21106331 0.64314204 -0.22864927 -0.16799173
-0.24664964 0.7570225 -0.09011501 -0.16972697 -0.32613614 0.54087496 -0.1824728 -0.2889292
-0.10815129 -0.20783345 -0.05710136 0.48522994 -0.10059108 -0.20649546 0.7014328 -0.23821965
-0.4954481 -0.15945698 -0.49547157 -0.49543947 -0.5277664 -0.21329843 -0.22330023 -0.06816843
0.6982747 0.080987096 0.5166002 0.38341716 0.08694077 -0.05625226 -0.33798572 0.6546887
-0.1045817 0.8804247 -0.09664725 -0.20158544 -0.20685224 -0.0044529703 0.53959394 -0.19325794
-0.045784466 0.56839514 -0.21465908 0.72259206 -0.66435903 -0.124988824 -0.104187615 0.7530811
0.59370106 -0.37328088 0.06244208 0.64110386 -0.2605742 0.84793144 0.019174831 0.27889627
-0.14454938 -0.26250985 -0.059551764 0.5372601 0.11892349 0.66529053 -0.15573289 -0.11504602
-0.416511 0.24787742 -0.123753935 0.3571086 -0.27871713 -0.41407835 -0.37985858 -0.054277066
00000000: c6b4 aebd ece7 a33e cacd d4be fa32 de3e
00000010: 914d 46bd a02e 553f ac35 92be a7d1 a3be
00000020: 17e5 8fbe 4c38 15be 3325 afbe 37aa 123f
00000030: 5c3c 053f f157 c63c f5ef 153f 75c9 b33e
00000040: fc35 123f 0c14 b73e e855 163f 54be cb3c
00000050: 4da6 1a3f 8d51 673d 513e 003f 6f3d 0c3f
00000060: fb70 433f 119e b13e 42c9 d23e b995 bc3d
00000070: 922d b73e 770c 1fbc 7177 d43e fe1d b73e
00000080: 64a6 1e3f 603f 92bd 2463 74be e7cc a43e
00000090: e8b5 f43e d057 21bf 25e0 2dbd b47e a0be
000000a0: ad48 98be 9f15 8abe 7904 df3e 6ed3 31bd
000000b0: 3ce0 f53e 7f44 8f3e 11bb e23e 91b5 eb3e
000000c0: dd25 483d ab69 ac3c fe3c 273e 38d2 7abe
000000d0: 1998 53be 7f10 823b 9a28 053f a4d3 96be
000000e0: 1400 94bc 1640 79be d080 3abe fc07 66bd
000000f0: e88d 83be 4037 bfbb d96c d73e c78d 8c3e
00000100: ee56 033f f00e 3a3f f704 d93e 788c 043f
00000110: 0961 543e 943b c13e b256 d83e a00b 8e3e
00000120: 29e6 8abe 80b2 2e3d 57c5 e4be be5e 24bd
00000130: a91b b6be da35 7e3e b877 2e3f 5d53 7dbe
00000140: e8ab 923e a564 41bd 4f37 9c3e 71bb ab3e
00000150: d6cf 243d f782 993e 96de 683e 34cc 69be
00000160: 2538 9fbd 7673 fcbb 4a01 993c 5d92 cb3e
00000170: d12a dbbe df21 023f 0f10 f03e 6c00 d73d
00000180: 4d63 bcbe 3386 2d3f 3034 1fbe 6640 5d3e
00000190: c19d 4b3e 7954 d23e 8da5 833e 589f d8be
000001a0: 6ff5 8bbe 3ad0 693c 0e0d 6a3e 8174 ab3d
000001b0: 1ea0 14bf e718 0cbe 3f65 643e 8652 333f
000001c0: e3b0 173f 80d1 0cbf fa90 6bbe c8a6 e63e
000001d0: 1687 b6be 4c1d 2d3f 79b4 df3e 77c9 093f
000001e0: ecae 70be dae5 1e3f 5f2c c2be a603 44be
000001f0: 0f0f 9dbd 581c 1a3f 745f 17be 8478 99be
00000200: 0363 89bd 663b 0cbd 0d70 cdbe 4a95 8abe
00000210: 0ae4 073f af7a f73e 3bb5 0f3f daa2 d43e
00000220: 403b 0a3f 63d1 10be b9c5 433f e53a 543e
00000230: a703 d3be dd2f bdbd 1b0a d3be 33fd d2be
00000240: 44aa 7bbe a9e6 413e 00b8 9ebe d540 c43e
00000250: 8645 3b3f c409 793e 670b 2c3f c749 093f
00000260: 6939 fa3e 8b1f 9bbe dc91 dfbe 6a5c ff3e
00000270: 38d8 9e3e 3f1d ca3e 766d cc3e dac7 3fbe
00000280: 3fc9 57bc 27f4 6bbe 3b32 183f d77e 4a3e
00000290: ba38 b23e 2d3c cf3e be56 7dbe 5c7b ee3e
000002a0: 8ad6 f9be d592 333c 45c9 543e cdc2 c73e
000002b0: 9741 be3d 6ba4 fb3e 494e f13e c225 07be
000002c0: 3ca0 913e 9d3b c43e ade8 ccbd 1db6 ae3d
000002d0: fb20 58be f5a4 243f 0923 6abe 0606 2cbe
000002e0: b991 7cbe 3acc 413f 388e b8bd e8cc 2dbe
000002f0: 51fb a6be c876 0a3f 26da 3abe 87ee 93be
00000300: 6c7e ddbd 4bd2 54be 1ee3 69bd 0f70 f83e
00000310: b202 cebd 8c73 53be 1a91 333f daef 73be
00000320: 60ab fdbe b148 23be 73ae fdbe 3eaa fdbe
00000330: b31b 07bf e76a 5abe d1a8 64be e49b 8bbd
00000340: 21c2 323f 90dc a53d e93f 043f 414f c43e
00000350: 010e b23d c568 66bd 770c adbe ae99 273f
00000360: ee2e d6bd 8363 613f feee c5bd 6a6c 4ebe
00000370: 13d1 53be 39ea 91bb d422 0a3f 69e5 45be
00000380: 7e88 3bbd 5882 113f 97cf 5bbe cbfb 383f
00000390: 6f13 2abf 24fa ffbd 5160 d5bd ecc9 403f
000003a0: cbfc 173f ac1e bfbe 44c3 7f3d 621f 243f
000003b0: fb69 85be 0912 593f 8914 9d3c 7ecb 8e3e
000003c0: c104 14be b167 86be 8dec 73bd e189 093f
000003d0: 298e f33d 7b50 2a3f 7178 1fbe 3f9d ebbd
000003e0: ee40 d5be 94d3 7d3e b472 fdbd f0d6 b63e
000003f0: 03b4 8ebe 1402 d4be d37c c2be a151 5ebd

l1.bias f4 [8]
0.70389056 0.87948895 0.41216233 0.49543282 0.8581832 0.72902423 0.60088223 0.874273
00000000: 2c32 343f 3026 613f f106 d33e 5fa9 fd3e
00000010: e5b1 5b3f 55a1 3a3f 6bd3 193f 5bd0 5f3f

l2.weight f4 [8, 8]
1.1665865 -0.28316972 -0.35813364 -0.65118974 -0.101347916 0.72138596 0.82105696 1.1356016
-0.34637883 0.22806537 0.92493844 1.4041404 -0.23333748 0.4489959 0.010789697 0.74043745
0.8484131 -0.7396147 1.0307719 0.045939673 -1.2721653 -0.20696533 0.4727506 0.8730647
0.36165625 0.046980977 -1.1390566 -0.33970374 1.0805423 1.2229131 -0.58088064 1.0011203
0.4810043 1.0319967 0.6556486 -0.9168524 0.8149883 0.6582084 -0.9353053 -0.68166745
0.15115753 1.451944 -0.9194703 0.6820596 1.2576911 0.027044408 0.047428373 1.1580843
0.98956126 0.14803304 0.8521502 1.1366 0.6730231 0.8138946 0.7478258 -0.46272743
0.66560453 -0.41306683 0.5209257 -0.46580935 0.7154223 -0.6916005 1.2852622 0.22859472
00000000: b552 953f 9ffb 90be 4b5d b7be 5fb4 26bf
00000010: 7f8f cfbd c0ac 383f ca30 523f 655b 913f
00000020: 9158 b1be f889 693e c4c8 6c3f dfba b33f
00000030: 05f0 6ebe cae2 e53e 45c7 303c 4f8d 3d3f
00000040: 9a31 593f 6457 3dbf 55f0 833f 3d2b 3c3d
00000050: 50d6 a2bf b8ee 53be 5e0c f23e 2b81 5f3f
00000060: 022b b93e 206f 403d 9bcc 91bf a6ed adbe
00000070: 364f 8a3f 6b88 9c3f 98b4 14bf b624 803f
00000080: 3246 f63e 7818 843f 96d8 273f d7b6 6abf
00000090: 13a3 503f 5880 283f 2b70 6fbf c281 2ebf
000000a0: 0ac9 1a3e 4dd9 b93f 6862 6bbf 759b 2e3f
000000b0: 06fc a03f 3c8c dd3c 4144 423d 1b3c 943f
000000c0: e353 7d3f f995 173e 8426 5a3f 1c7c 913f
000000d0: 3e4b 2c3f 665b 503f 8371 3f3f 9cea ecbe
000000e0: 0f65 2a3f 7f7d d3be 635b 053f 907e eebe
000000f0: ea25 373f bb0c 31bf 7983 a43f bc14 6a3e

l2.bias f4 [8]
-0.11440491 -0.6070779 0.7303466 -0.43246782 1.2107456 0.6190324 -0.7811919 0.6060892
00000000: 1f4d eabd 7569 1bbf fff7 3a3f 6c6c ddbe
00000010: b6f9 9a3f e878 1e3f 31fc 47bf a928 1b3f

l3.weight f4 [8, 8]
0.47674626 -0.55700827 0.48940435 -1.0560404 -1.1117074 -1.0048931 0.23963052 0.26651105
0.39311907 0.7180469 0.2943379 -0.97866106 -1.162775 -0.35114613 0.26661256 -1.214884
-0.43583795 0.01976906 -0.7693959 -1.0471061 -0.4684772 0.13616589 0.510216 0.32115832
0.63840914 -0.930497 -1.0993631 0.5921341 0.32726085 0.011907816 -0.26561788 -1.0424969
-1.5564518 0.576202 -1.0818431 0.19827084 -0.08263811 0.30217513 0.14447837 -1.7198172
-1.3015443 -0.034185715 0.9248137 -1.0080619 0.7302813 -1.1069622 -0.7206612 0.39866954
-1.2108612 -1.5782952 -1.0325054 -1.4355654 0.93048614 0.8679754 -1.2604047 -1.2944925
0.5107721 -0.39828295 0.5440964 -0.16725053 -1.4374928 0.27730998 -0.98518336 0.26409563
00000000: 1618 f43e 1898 0ebf 3593 fa3e 552c 87bf
00000010: 6e4c 8ebf 56a0 80bf b461 753e 2374 883e
00000020: e746 c93e ecd1 373f 75b3 963e 8889 7abf
00000030: d0d5 94bf 6dc9 b3be 7181 883e 5281 9bbf
00000040: 2726 dfbe b9f2 a13c 21f7 44bf 9307 86bf
00000050: 3edc efbe 126f 0b3e 849d 023f dd6e a43e
00000060: c86e 233f 0d35 6ebf eeb7 8cbf 1a96 173f
00000070: bc8e a73e 0019 433c 11ff 87be 8a70 85bf
00000080: d039 c7bf f981 133f d679 8abf 8307 4b3e
00000090: 2b3e a9bd b3b6 9a3e 23f2 133e f822 dcbf
000000a0: 0199 a6bf 5206 0cbd 97c0 6c3f 2c08 81bf
000000b0: b7f3 3a3f f0b0 8dbf 417d 38bf 6a1e cc3e
000000c0: 80fd 9abf 9405 cabf 2329 84bf 9bc0 b7bf
000000d0: 5734 6e3f a333 5e3f f154 a1bf eeb1 a5bf
000000e0: f6c1 023f beeb cbbe e749 0b3f b943 2bbe
000000f0: c4ff b7bf 93fb 8d3e fa34 7cbf 8b37 873e

l3.bias f4 [8]
-0.5954324 -0.55501336 -0.41734472 -0.38039443 -0.26101682 0.6175289 0.792219 0.09646298
00000000: 426e 18bf 5b15 0ebf 35ae d5be 0fc3 c2be
00000010: ffa3 85be 6016 1e3f ddce 4a3f 628e c53d
